…
+   layer_dropout(rate = 0.25) %>%                                            
+   layer_dense(units = 128, activation = "relu") %>%
+   layer_dropout(rate = 0.25) %>%
+   layer_dense(units = 64, activation = "relu") %>%
+   layer_dropout(rate = 0.25) %>%
+   layer_dense(units = 10, activation = "relu")
> 
> summary(model)
Model: "sequential"
________________________________________________________________________________
 Layer (type)                       Output Shape                    Param #     
================================================================================
 dense_3 (Dense)                    (None, 256)                     786688      
 dropout_2 (Dropout)                (None, 256)                     0           
 dense_2 (Dense)                    (None, 128)                     32896       
 dropout_1 (Dropout)                (None, 128)                     0           
 dense_1 (Dense)                    (None, 64)                      8256        
 dropout (Dropout)                  (None, 64)                      0           
 dense (Dense)                      (None, 10)                      650         
================================================================================
Total params: 828,490
Trainable params: 828,490
Non-trainable params: 0
________________________________________________________________________________
> 
> model %>% compile(
+   loss = "categorical_crossentropy",     #calculate loss
+   optimizer = optimizer_adam(),          #optimization
+   metrics = c("accuracy")                #accuracy
…
> tf.Tensor([9 6 6 ... 1 8 6], shape=(10000,), dtype=int64)
BŁĄD: nieoczekiwane '[' w "tf.Tensor(["
> 
> plot(history)
> summary(model)
Model: "sequential_1"
______________________________________________________________________________________________________________________________________
 Layer (type)                                               Output Shape                                         Param #              
======================================================================================================================================
 dense_7 (Dense)                                            (None, 256)                                          786688               
 dropout_5 (Dropout)                                        (None, 256)                                          0                    
 dense_6 (Dense)                                            (None, 128)                                          32896                
 dropout_4 (Dropout)                                        (None, 128)                                          0                    
 dense_5 (Dense)                                            (None, 64)                                           8256                 
 dropout_3 (Dropout)                                        (None, 64)                                           0                    
 dense_4 (Dense)                                            (None, 100)                                          6500                 
======================================================================================================================================
Total params: 834,340
Trainable params: 834,340
Non-trainable params: 0
______________________________________________________________________________________________________________________________________
Błąd w poleceniu 'UseMethod("depth")':
…
